…
 . keras . layers . BatchNormalization ( momentum = 0.999 , scale = False ), tf . keras . layers . Activation ( \"hard_tanh\" ), lq . layers . QuantDense ( 10 , kernel_quantizer = \"ste_sign\" , input_quantizer = \"ste_sign\" , kernel_constraint = \"weight_clip\" , use_bias = False , ), tf . keras . layers . BatchNormalization ( momentum = 0.999 , scale = False ), tf . keras . layers . Activation ( \"softmax\" ), ] ) One can output a summary of the model. lq . models . summary ( model ) Layer Outputs # 1-bit # 32-bit ------------------------ ----------------- --------- ---------- quant_conv2d (-1, 30, 30, 128) 3456 0 batch_normalization_v1 (-1, 30, 30, 128) 0 384 activation (-1, 30, 30, 128) 0 0 quant_conv2d_1 (-1, 30, 30, 128) 147456 0 max_pooling2d (-1, 15, 15, 128) 0 0 batch_normalization_v1_1 (-1, 15, 15, 128) 0 384 activation_1 (-1, 15, 15, 128) 0 0 quant_conv2d_2 (-1, 15, 15, 256) 294912 0 batch_normalization_v1_2 (-1, 15, 15, 256) 0 768 activation_2 (-1, 15, 15, 256) 0 0 quant_conv2d_3 (-1, 15, 15, 256) 589824 0 max_pooling2d_1 (-1, 7, 7, 256) 0 0 batch_normalization_v1_3 (-1, 7, 7, 256) 0 768 activation_3 (-1, 7, 7, 256) 0 0 quant_conv2d_4 (-1, 7, 7, 512) 1179648 0 batch_normalization_v1_4 (-1, 7, 7, 512) 0 1536 activation_4 (-1, 7, 7, 512) 0 0 quant_conv2d_5 (-1, 7, 7, 512) 2359296 0 max_pooling2d_2 (-1, 3, 3, 512) 0 0 batch_normalization_v1_5 (-1, 3, 3, 512) 0 1536 flatten (-1, 4608) 0 0 activation_5 (-1, 4608) 0 0 quant_dense (-1, 1024) 4718592 0 batch_normalization_v1_6 (-1, 1024) 0 3072 activation_6 (-1, 1024) 0 0 quant_dense_1 (-1, 1024) 1048576 0 batch_normalization_v1_7 (-1, 1024) 0 3072 activation_7 (-1, 1024) 0 0 quant_dense_2 (-1, 10) 10240 0 batch_normalization_v1_8 (-1, 10) 0 30 activation_8 (-1, 10) 0 0 Total 10352000 11550 Total params: 10363550 Trainable params: 10355850 Non-trainable params: 7700 Model Training \u00b6 Compile the model and train the model model . compile ( tf . keras . optimizers . Adam ( lr = 0.01 , decay = 0.0001 ), loss = \"categorical_crossentropy\" , metrics = [ \"accuracy\" ], ) trained_model = model . fit ( train_images , train_labels , batch_size = 50 , epochs = 100
…
e = False )) model . add ( lq . layers . QuantDense ( 10 , use_bias = False , ** kwargs )) model . add ( tf . keras . layers . BatchNormalization ( scale = False )) model . add ( tf . keras . layers . Activation ( \"softmax\" )) Here's the complete architecture of our model. Almost all parameter of the network a binarized (either -1 or 1). This will make the network extremly fast when deployed on a embedded device that supports binarized neural networks. lq . models . summary ( model ) Layer Outputs # 1-bit # 32-bit ------------------------ ---------------- --------- ---------- quant_conv2d_3 (-1, 26, 26, 32) 288 0 max_pooling2d_2 (-1, 13, 13, 32) 0 0 batch_normalization_v1_5 (-1, 13, 13, 32) 0 96 quant_conv2d_4 (-1, 11, 11, 64) 18432 0 max_pooling2d_3 (-1, 5, 5, 64) 0 0 batch_normalization_v1_6 (-1, 5, 5, 64) 0 192 quant_conv2d_5 (-1, 3, 3, 64) 36864 0 batch_normalization_v1_7 (-1, 3, 3, 64) 0 192 flatten_1 (-1, 576) 0 0 quant_dense_2 (-1, 64) 36864 0 batch_normalization_v1_8 (-1, 64) 0 192 quant_dense_3 (-1, 10) 640 0 batch_normalization_v1_9 (-1, 10) 0 30 activation_1 (-1, 10) 0 0 Total 93088 702 Total params: 93790 Trainable params: 93322 Non-trainable params: 468 Compile and train the model \u00b6 Note: This may take a few minutes depending on your system. model . compile ( optimizer = 'adam' , loss = 'sparse_categorical_crossentropy' , metrics = [ 'accuracy' ]) model . fit ( train_images , train_labels , batch_size = 64 , epochs = 6 ) test_loss , test_acc = model . ev
…
